Net_model.pt (torch, 290831 bytes, 12 tensors)

weight f4 [6, 1, 5, 5]
000000 8f 01 61 3d 5a 4a 29 be 46 87 5d 3d 03 93 b4 3d
       0.054933127 -0.16532269 0.054084085 0.08817103
000010 16 b5 0d 3e 91 93 de bd 2c d2 23 be 5d 90 3c bd
       0.1383861 -0.1086799 -0.15998143 -0.046036113
000020 1b f9 28 bd 69 7c 6a ba 87 15 16 be 57 38 28 be
       -0.04125319 -0.000894493 -0.1465665 -0.16427742
000030 ce 72 db 3d f8 61 01 3d 59 ad 5d bd f2 b7 08 3e
       0.10715257 0.03158757 -0.054120395 0.1335142
000040 28 88 38 be a0 c0 1d bc 91 12 e7 3d 91 6c 23 be
       -0.1802069 -0.009628445 0.11282838 -0.15959384
000050 c6 38 8e 3d c2 4f 5b bd ab 8d d7 3d d5 19 83 bd
       0.069444224 -0.05354286 0.10525068 -0.064014114
000060 95 d4 1b be 63 57 32 3e 1e 03 d5 bc da 86 03 3c
       -0.15217812 0.17416148 -0.026002463 0.008027757
000070 a1 9d 2d be 9e b8 d5 3c 4b 96 12 be 6a da cf 3d
       -0.16954662 0.026089009 -0.14315145 0.10149081
000080 85 b3 0d 3e ba 48 a5 3d ae e6 71 3b 29 31 17 3e
       0.13838013 0.08070512 0.0036911177 0.14764847
000090 c3 66 0f 3e c9 9f 96 bd e2 af ee bd f2 77 8b bd
       0.14004044 -0.07354695 -0.11654641 -0.06809987
0000a0 b1 63 35 be 21 80 61 bd 35 68 f2 b9 e2 19 e6 3b
       -0.1771381 -0.055053834 -0.00046235477 0.0070221284
0000b0 97 f9 6c bd 02 14 88 bd 9d 82 17 be 48 db 2b 3e
       -0.057855215 -0.06644441 -0.14795919 0.16782868
0000c0 3f 63 d5 bd 38 62 ea bd 20 e8 a4 bc 8a 33 9d bd
       -0.1041932 -0.11444515 -0.020130217 -0.07675846
0000d0 5f 17 41 be 29 cb 88 3d 6f d1 9e 3d 6c 80 c8 3d
       -0.18856572 0.06679375 0.0775479 0.097901195
0000e0 d8 f7 5e bd 67 99 6c bd fd ce fb bd 87 ed 8a 3d
       -0.05443558 -0.057763483 -0.12295339 0.06783586
0000f0 af df 08 3e 47 a5 45 bd 1d 39 83 bd a6 82 97 3a
       0.13366579 -0.048253324 -0.06407378 0.0011559322
000100 50 bd 1b be 7a 10 26 be 26 b5 20 be 29 eb d5 bc
       -0.15208936 -0.16217223 -0.15694103 -0.02611311
000110 d7 6d 37 3e 63 be c5 bd 0e b7 13 be 50 e1 01 3d
       0.17912994 -0.09655454 -0.14425299 0.031709015
000120 be a5 04 bd 88 5f 35 3e ca fc 16 3e f6 06 05 3e
       -0.032384627 0.17712224 0.14744869 0.12990937
000130 7a 34 78 bd 60 7b f7 3d 41 e2 ce bd 57 8f ef 3d
       -0.06059692 0.12084079 -0.10101748 0.11697262
000140 2f 95 31 bd a3 c2 36 3d a7 72 50 3c b6 7f 84 bd
       -0.043355163 0.044619214 0.012722648 -0.064696714
000150 02 0c 2a 3e 46 6b 22 be fd 44 14 bd 8c 3b 34 be
       0.16606143 -0.15861234 -0.036198605 -0.1760084
000160 51 74 ea 3d 7c 99 0f be c4 df 2a be fd 8b 22 3e
       0.11447967 -0.14023393 -0.16686922 0.15873714
000170 f8 f6 f9 bd f6 3a 6c 3d 3e be 51 bd 8a 2f be 3d
       -0.12205309 0.057673417 -0.05120682 0.09286411
000180 7d fc 23 be 97 9c 27 3e f2 67 11 3e e4 7f 08 3d
       -0.16014285 0.16368328 0.14199808 0.03332509
000190 27 d5 a1 bd 30 7b 0e bd 4b 87 e1 bc 79 d5 19 bd
       -0.07901984 -0.03478545 -0.027530333 -0.0375571
0001a0 90 ef 1c be 41 a1 3a bd fe 7c 30 be e8 9a 24 3e
       -0.15325761 -0.04556394 -0.1723518 0.16074717
0001b0 42 5f 7a 3d fb 14 32 3e 8e 3e f9 bd 29 26 91 bd
       0.061126 0.17390816 -0.121701345 -0.070873566
0001c0 d8 4f 17 3e f0 10 fa bc 98 d0 24 bd 6c 9c cc 3c
       0.14776552 -0.030525655 -0.040237993 0.024976932
0001d0 cc 8c 09 be eb 42 da bd 74 14 81 bb 67 08 71 bd
       -0.13432616 -0.10657295 -0.003939206 -0.058845904
0001e0 05 77 31 be a9 ed 07 3e be 27 0b 3e 38 82 1a 3e
       -0.17330559 0.13274254 0.13589379 0.15088737
0001f0 3f 5c 3a bc ed 49 99 bd d2 f0 1c bd 17 ee 8f 3d
       -0.011374532 -0.07484803 -0.0383156 0.07027834
000200 da ea 25 3e 4f 9e 48 3d 3a 95 31 bc 48 54 01 3e
       0.1620287 0.0489791 -0.010838801 0.12629807
000210 6c 36 0c 3e eb a0 10 3d 73 92 09 bc 8a 03 bc bc
       0.13692635 0.035309713 -0.008396733 -0.022950906
000220 6a 9f d5 3c b5 86 32 3e 01 75 a7 3d 56 fd 8a 3d
       0.026076991 0.17434199 0.081766136 0.06786601
000230 85 88 1c 3e 78 23 8e bd 75 f6 dc bd 8c 67 29 3e
       0.15286453 -0.06940359 -0.107891954 0.16543406
000240 f8 1c 19 be a8 29 94 bd 8b dd b6 3c 35 d1 19 bd
       -0.14952457 -0.07234508 0.022322437 -0.03755303
000250 c1 31 a4 3d bb a3 b6 bd
       0.08017302 -0.08917948

bias f4 [6]
000000 bf e7 cf 3d 98 25 67 ba a2 3b 1f 3d 93 d1 af ba
       0.10151624 -0.00088175526 0.03887523 -0.0013413898
000010 ee 15 68 bb 1c dc 2b 3e
       -0.0035413462 0.16783184

weight f4 [6, 6, 5, 5]
000000 bd 86 df 3d a9 01 fc 3d da 5c 73 bc 8d 8d 08 be
       0.10914371 0.12305004 -0.0148536805 -0.13335247
000010 ae 84 91 3d a7 7e 8c bd 72 a3 91 bd 19 d0 0c 3e
       0.07105385 -0.068600945 -0.07111253 0.13751258
000020 bb b5 a2 3d 42 c3 64 bc 2c 55 ed bc c3 50 b6 3d
       0.079448186 -0.013962569 -0.028971277 0.08902123
000030 75 16 02 be c2 54 d9 bb 27 8a c3 bd a8 db 9f 3d
       -0.12703879 -0.0066324184 -0.09547835 0.07805568
000040 6a 1e e0 bd c8 f6 01 3e a0 c2 83 bb 3a 59 db 3d
       -0.10943301 0.12691796 -0.004021004 0.10710378
000050 47 93 85 bc 96 21 80 3d e0 db f8 bd ad 15 bc 3d
       -0.016305579 0.06256406 -0.12151313 0.09183822
000060 b8 f1 b6 bd cf 04 ee 3d b9 fa 14 3d 04 39 dc bd
       -0.08932823 0.11622011 0.03637192 -0.10753062
000070 6c 70 83 3d 94 83 c9 3c af 00 2a 3d bc ec 53 bd
       0.06417927 0.024598874 0.04150456 -0.05173944
000080 a5 1b d5 bd fe 0c f8 bd a3 73 6e bd ae 07 6d 3c
       -0.104056634 -0.12111853 -0.05821575 0.014467163
000090 64 b8 49 3d 2b 9c 47 bd 1a 29 48 bc 23 aa da 3d
       0.049248114 -0.048732918 -0.012216831 0.10676982
0000a0 f9 1a ce 3d 25 80 75 bd 06 bf c5 bd 19 71 df bd
       0.100637384 -0.05993666 -0.096555755 -0.109102435
0000b0 f6 ff e3 bd fd a4 99 bd 61 05 9a bd e7 ac 03 3e
       -0.11132805 -0.07502172 -0.07520557 0.12858926
0000c0 57 46 a4 bc 1b af c9 3d c7 6e a1 3d bf 7d 66 bd
       -0.020053072 0.09847852 0.07882457 -0.056272265
0000d0 19 ca d9 3d c5 92 1b 3d db 1b 97 bc 99 f5 16 3e
       0.1063425 0.037981767 -0.0184459 0.14742126
0000e0 5e 4d aa 3c 00 d4 3d 3d e6 d3 06 3e 5e 43 d3 bd
       0.020788845 0.046344757 0.1316677 -0.10315584
0000f0 c5 0e 00 bd da 63 dd bd 3b f7 8a 3d bf 37 89 bd
       -0.031264085 -0.10810061 0.06785437 -0.06700086
000100 aa 34 cf bd 6f 96 c6 bd 0a 43 27 3d 0a 67 a0 bd
       -0.10117467 -0.09696662 0.040835418 -0.07832153
000110 12 ff 83 3c 5c 52 87 3c aa c3 af 3d 9b d0 2a bd
       0.016112838 0.016518764 0.08582242 -0.041702848
000120 14 01 23 3d 38 b8 b5 3c c8 5e e2 bc 61 f6 b5 3d
       0.03979595 0.022182569 -0.027633086 0.08884884
000130 e6 6e a1 3d cb d5 92 3d 66 f0 f7 3d ba f1 08 3e
       0.0788248 0.07169684 0.12106399 0.13373461
000140 9a 17 df bd 71 cd 01 bd a4 3f f7 3d 74 86 d1 bd
       -0.108931735 -0.031690065 0.12072685 -0.10230723
000150 3e fa 40 bc 41 1b d8 bc 3e 3a e7 bd f7 fc 9d bd
       -0.011778412 -0.026380183 -0.11290406 -0.07714265
000160 5e fb c5 bc fd 51 75 bd 57 e6 b4 bd 6d ec 93 bd
       -0.024167713 -0.059892643 -0.08832996 -0.07222829
000170 48 83 d6 3d 96 7d 10 3e 7b 50 14 3e 8d d3 c4 bd
       0.10474259 0.14110407 0.14483826 -0.096106626
000180 7e 5a 8f bd e6 8c eb 3d ba f5 e2 bd 2d 02 49 3c
       -0.06999682 0.115014836 -0.11082025 0.012268585
000190 91 18 65 3d 14 86 05 bd 26 01 02 be 7d bb 07 bd
       0.05593163 -0.03259857 -0.1269575 -0.033137787
0001a0 14 4f 6c bd 01 9c 17 3e a0 c4 a5 3d f6 56 42 bc
       -0.057692602 0.14805605 0.08094144 -0.011861553
0001b0 0d 86 69 bd 9c 76 05 be a8 5b fc 3d 26 b0 cb bd
       -0.057012606 -0.13033527 0.123221695 -0.09945707
0001c0 38 ec a5 bd 63 92 06 be 32 48 0f 3e 04 6e b1 bd
       -0.08101696 -0.1314178 0.13992384 -0.08663562
0001d0 52 0e 00 be ae a7 03 bc bf 2f b4 bd ff 39 b2 bd
       -0.12505463 -0.008035583 -0.08798169 -0.08702468
0001e0 14 bd 98 bd 86 69 88 bd d2 77 a9 3d cb e5 8e ba
       -0.07457939 -0.06660752 0.08274807 -0.0010902224
0001f0 4d 85 3e 3b 98 fd 7c 3d fe 31 cc 3d 75 0f 38 3d
       0.0029071153 0.061765283 0.09970473 0.044936616
000200 5d 0c 80 3d a5 dc e5 bd 1c ba 98 bc 9e a1 14 3e
       0.06252358 -0.11223725 -0.018643431 0.14514777
000210 91 1b a1 bd 2e e5 ec bd fc 95 03 bd da be cc bc
       -0.07866586 -0.1156715 -0.032125458 -0.024993349
000220 33 2a f6 bd b8 f8 4b bd 87 ba 08 3d f3 f0 a8 3c
       -0.120197676 -0.049797744 0.03338101 0.020622706
000230 7e 60 47 bd 09 56 f7 3d b6 94 e3 bd a1 74 04 be
       -0.048676006 0.12076957 -0.11112349 -0.12935115
000240 7a 03 9b bd 8f ea 92 bd fe cd 54 3c 4f 99 c2 bd
       -0.075690225 -0.07173645 0.0129885655 -0.095018975
000250 0f 1f de bd 40 d6 39 bd 33 f1 ea 3d 00 3c 99 bd
       -0.10845768 -0.04537034 0.11471786 -0.07482147
000260 fd ff b8 bb 49 b8 d2 bd c6 0f fa 3d 3a 05 c7 3c
       -0.0056457506 -0.10289056 0.1221004 0.024294484
000270 57 2b c6 3d 0e ca e4 bd 3d d8 ec 3c b9 ec 5e 3d
       0.09676235 -0.111713514 0.028911704 0.054424975
000280 3a 89 de 3b b5 9f 65 3c 95 33 95 3d 1e ce 2f 3d
       0.006791261 0.014015128 0.07285229 0.042921178
000290 c9 cb 18 3e 0d 66 73 3d 62 ca 92 3b 38 78 4d bd
       0.14921488 0.059423495 0.0044796923 -0.050163478
0002a0 8c 11 01 be 6f dd 67 bc 37 fa 8b 3d 5c a1 d0 3c
       -0.1260435 -0.014151915 0.06834834 0.025467567
0002b0 06 73 ba 3d 2b af b2 3d f4 84 aa 3d 34 dd 0b bd
       0.0910397 0.08724817 0.0832614 -0.034146503
0002c0 dd 97 a2 3d c0 bf a5 bd 4d 86 56 3d 61 a6 f7 bd
       0.07939122 -0.08093214 0.052374173 -0.12092281
0002d0 a8 8e da 3d 19 25 9f 3d bc 49 a1 bd eb cd 1e 3d
       0.10671741 0.07770748 -0.07875392 0.038770597
0002e0 db 26 22 3d ca 43 8f 3d cc 96 bc 3d e7 b6 1d bd
       0.039587837 0.069953516 0.0920845 -0.038504507
0002f0 13 81 60 3d 6b b4 00 bd 77 26 91 bd c6 92 a9 3c
       0.054810595 -0.03142206 -0.07087415 0.02069987
000300 4f e9 f3 bd a6 d4 e0 3c 47 2e dd bd 94 b3 d9 bd
       -0.119097345 0.027445149 -0.10799842 -0.10629955
000310 97 04 0c 3e d9 6a 91 bd c1 73 11 bd f0 a4 7b bc
       0.13673626 -0.07100458 -0.035510782 -0.015359148
000320 5c 3a bf 3d 39 62 c3 bd 38 0d ff 3d e3 3c b2 bd
       0.09337303 -0.09540219 0.12453693 -0.087030195
000330 d3 a4 bc 3c a3 b4 3c 3b b0 cf d8 bd df 5f af 3c
       0.023027813 0.0028794191 -0.10586488 0.02140802
000340 c9 97 83 3d e1 88 7f 3c c5 10 a3 bd 1f 5b fd bd
       0.06425435 0.015596599 -0.07962183 -0.123708956
000350 c5 c5 e9 bc 04 19 0e 3e de bc 8a bd 0b cd da bd
       -0.028536687 0.1387673 -0.06774305 -0.1068364
000360 07 f7 62 3d b3 ad cf bd 5b 8f b9 bc d6 74 01 3e
       0.055411365 -0.10140552 -0.022651365 0.12642226
000370 f8 8d 86 3d 48 f8 e0 3c a0 02 ac 3d a6 b3 46 bd
       0.06570047 0.02746214 0.08398938 -0.04851117
000380 d1 90 13 3e 17 36 91 3d fe ee ab bc e0 ff f2 3c
       0.14410712 0.07090395 -0.020987984 0.029663026
000390 6f 2e bc bd ca 2a ca b7 39 ac f3 3d 08 67 8f 3d
       -0.09188544 -2.4100202e-05 0.11898083 0.070020735
0003a0 20 a2 be bd 52 81 1f 3d 21 f4 9a 3d 37 75 ee 3d
       -0.09308267 0.03894169 0.07566095 0.11643451
0003b0 99 41 92 bc c3 f6 fb bd e2 d7 d4 3d a9 31 cb bd
       -0.017853545 -0.123029254 0.10392739 -0.09921581
0003c0 9a ec 0b bd 8d 95 df bd b2 f6 4a bd 19 d5 ad 3c
       -0.034161188 -0.109171964 -0.049551673 0.021219777
0003d0 07 4b 31 3d 89 eb 0f 3e 2b bc dc 3d 09 16 0e 3e
       0.043284442 0.14054693 0.10778078 0.13875593
0003e0 91 77 c0 3d 86 75 9c 3c 94 d8 05 3d 96 5c 39 3b
       0.093978055 0.019099008 0.032677248 0.0028283945
0003f0 78 f4 8f 3d a5 67 06 3e 9f c4 2b bc f9 b3 b3 bd
       0.070290506 0.13125475 -0.01048389 -0.087745614

bias f4 [6]
000000 40 43 46 3d 03 52 9c 3d 54 02 ca bc 1b 64 1f bc
       0.04840398 0.0763283 -0.024659313 -0.009728457
000010 82 52 0d bd 52 40 6c bd
       -0.034502514 -0.057678528

weight f4 [16, 6, 5, 5]
000000 d3 78 e6 3d e6 fa 19 bc f7 79 a5 bd 54 d0 a5 3d
       0.11253514 -0.009398198 -0.080799036 0.08096376
000010 55 6d 33 3d cd fd 8d 3b 09 a6 26 3c d2 ce 4a 3d
       0.04380544 0.004333234 0.010171422 0.049513645
000020 25 25 55 bd 23 d2 cd 3d b2 78 60 3d 1b e4 d8 3d
       -0.052037377 0.10049846 0.054802604 0.10590383
000030 70 31 bd bd 29 7b b1 3d 04 0b 83 bd 8d 11 11 3d
       -0.09237945 0.08666069 -0.063985854 0.03541713
000040 2d 5d 90 bd ce f5 58 bc 7c 7a 24 bc 1b bc bb bd
       -0.07049022 -0.013242198 -0.010038968 -0.09166738
000050 a1 0d 4e bd da f9 8d bc 17 fe b2 3d ca a6 cc 3d
       -0.050305966 -0.017331053 0.0873987 0.0999275
000060 6c ed d8 3d 23 3e 6b bc 97 d5 cf 3b ea 6d 08 bb
       0.1059216 -0.014358076 0.0063426006 -0.0020817467
000070 5f e7 d7 3d 61 d3 4c 3d bd 32 58 3d 35 86 e5 3d
       0.105421774 0.050006274 0.052782763 0.112072386
000080 9d 80 6c bc 28 77 e3 3d a4 da 94 bd cb 9e 27 3d
       -0.014434961 0.111067116 -0.07268265 0.04092292
000090 b7 29 30 bd 5b f6 c6 3d f8 a1 65 3d aa b8 7b bd
       -0.043008532 0.09714957 0.05606267 -0.061455406
0000a0 59 18 80 bd 82 f9 72 3c 3d 28 ba 3d ef b4 83 bd
       -0.06254644 0.014829995 0.09089706 -0.06430995
0000b0 6a e2 68 bd 8e 25 24 3d 3e d5 8e 3d 19 58 5c bc
       -0.05685655 0.040074877 0.069742665 -0.0134487385
0000c0 1c cb 6c bc 0d f9 91 3d 5a 51 8f 3d 0b f8 a7 bd
       -0.014452722 0.07127581 0.069979385 -0.08201607
0000d0 dd af cb 3d 13 2b ae 3d 23 bd 91 bd d9 c9 87 bd
       0.09945653 0.085043095 -0.07116153 -0.06630296
0000e0 f0 9b af 3d ea 2e f3 bc 38 59 25 3d e0 c0 87 bd
       0.085746646 -0.029685456 0.04036829 -0.06628585
0000f0 36 d2 50 3d c5 61 78 3c 25 82 31 3d 92 fc d4 3d
       0.050981723 0.015160029 0.043337006 0.103997365
000100 36 41 bf bc 62 9b c3 3d f6 c8 b4 3d 38 c4 e7 3d
       -0.023346525 0.09551121 0.08827393 0.11316723
000110 5e 12 4c 3b 9b 7e 35 bd ed 07 ae 3d 68 37 75 3d
       0.0031138877 -0.044310194 0.084976055 0.059867293
000120 28 8b 95 bd 78 91 28 bd 0f 01 f7 3c 85 a8 37 3d
       -0.073019326 -0.041154355 0.030151872 0.044838447
000130 73 a3 43 3d 1b fb 96 bd 34 70 d6 bc fd 93 b4 3d
       0.0477633 -0.07372113 -0.02617655 0.08817289
000140 f5 93 db bc 9d 5a a4 3c 07 b3 e8 3d 46 06 3a bd
       -0.02680395 0.020062739 0.11362272 -0.04541614
000150 6e cd 3d 3d 1c 6c c2 3d 2b 3b e3 3d c3 2f 0a 3d
       0.04633849 0.094932765 0.1109527 0.033736955
000160 52 c3 62 3c 5c 41 4f bd 5d bf 90 bd ad 95 8c bb
       0.013840513 -0.05059944 -0.0706775 -0.0042903037
000170 88 16 bd 3d d8 34 24 bd 07 ad e4 bb bc 39 aa 3c
       0.09232813 -0.04008946 -0.0069786343 0.020779483
000180 91 71 9e 3a 4e 83 89 bd e4 9b a7 bc 42 fb 91 3b
       0.0012088289 -0.067144975 -0.020460077 0.004455001
000190 12 ae 4b bd 56 d6 f6 3d 7b c4 9c bd 6f 4d 2f 3d
       -0.049726553 0.120526 -0.07654663 0.042798456
0001a0 c8 d5 82 3d 37 b0 7e bc 4a fc ac bd 8b 77 c6 3d
       0.06388432 -0.015544943 -0.08446558 0.0969077
0001b0 e8 5d c9 3d 12 28 43 bd 1f 17 5e 3d 23 f4 8e bd
       0.09832364 -0.047645636 0.05422127 -0.06980159
0001c0 b0 f9 ca 3d 40 00 56 3d 98 08 e3 3d 68 1a 93 3d
       0.09910905 0.052246332 0.110856235 0.07182771
0001d0 82 42 1c 3d ff 4b 01 bd 7b c7 86 3d e6 ca 4e bd
       0.038149364 -0.031566616 0.06581017 -0.050486468
0001e0 62 3d c9 3d 6a 5d 80 3d 00 2a 97 3d 2d 6c 11 bd
       0.09826161 0.06267817 0.07381058 -0.035503555
0001f0 dd 40 68 3d 69 f2 71 3c a4 de 47 bd 16 48 00 ba
       0.056702483 0.014767268 -0.04879631 -0.0004893554
000200 dc fb 98 bd f4 fe bb 3d 69 82 2e bd 3b 47 a2 3c
       -0.07469913 0.09179488 -0.042604838 0.019809356
000210 86 62 2d bd f2 ed a4 3d 92 d9 31 bd 1f 88 80 3c
       -0.042330287 0.08053197 -0.04342038 0.015689908
000220 03 02 94 3d ee be d8 3c 78 98 dd 3d 73 fc d8 3c
       0.07226946 0.02645823 0.10820097 0.026487565
000230 62 1a 4d bd 63 7c 46 3b f9 54 a1 3d 4f c4 96 3d
       -0.05007399 0.0030286543 0.078775354 0.07361662
000240 5a eb b1 38 6e 15 d5 3d c8 6a 19 3d 8f e2 d7 3d
       8.483855e-05 0.10404478 0.03745535 0.105412595
000250 82 77 2b 3d ae 6b 0f 3d 2a b0 5f 3b 94 65 8f 3d
       0.04186202 0.0350148 0.0034132102 0.07001796
000260 ce 2a c1 bd 27 86 b3 3c 6c 8a a1 bd 96 5a d6 3d
       -0.094319925 0.021914555 -0.0788773 0.10466497
000270 d1 d4 b6 bd c8 e3 f8 3b a8 18 da bc 50 f9 93 bd
       -0.0892731 0.007595513 -0.026623085 -0.07225287
000280 3c c5 60 3d 5b 92 44 3c 2a 10 d5 3d af b2 0c bd
       0.054875597 0.0119977845 0.10403474 -0.034350093
000290 7b ab 95 3d 4f e4 84 3d a8 5b 8b bb 4b 96 a1 3d
       0.07308098 0.06488859 -0.0042528696 0.07889994
0002a0 33 18 bc bd 1d 5d d1 3c 77 cc 1c bd d0 bc 39 3d
       -0.09184303 0.025557095 -0.03828093 0.04534608
0002b0 63 f6 a1 bd ac e5 b8 3d 64 89 8a 3d 6a 09 5e bd
       -0.07908323 0.090281814 0.067644864 -0.054208197
0002c0 06 ee 7e 3c 14 ce df 3c 63 87 a3 3c 48 e1 b2 3d
       0.015559679 0.027319945 0.019962018 0.08734375
0002d0 49 19 fc 3d f5 55 1c bd f8 fb ba 3d 70 05 de 3d
       0.1230951 -0.038167913 0.091300905 0.10840881
0002e0 ba 65 a0 3d 2b 85 96 bc 14 b9 9e bd c9 2a ca 3c
       0.07831903 -0.018374046 -0.077501446 0.024678605
0002f0 ab d0 82 3d 66 7f 71 bb 87 9b a1 bd ad fc 43 bc
       0.063874565 -0.0036849617 -0.078909926 -0.011962098
000300 dc 17 ad 3c ec e3 81 3d 8a bd f4 3d 7a a0 9a 3d
       0.021129541 0.06342301 0.11950214 0.0755014
000310 d6 b9 56 3d 75 65 05 bc 22 01 8f bd 6e 79 15 3c
       0.05242332 -0.008141865 -0.06982638 0.009123189
000320 4f d5 ba 3d 0c 63 a3 bd 2d 87 8b 3d 52 42 1e bd
       0.09122717 -0.07977876 0.06812892 -0.038637467
000330 12 9c 7a bd df 45 f0 3d 70 f3 a8 3d 75 16 01 3d
       -0.061183996 0.11732077 0.08249557 0.031515557
000340 ce c2 8a 3d 0e 3d a3 bd 4e 6b 29 bd 40 1a 3b 3d
       0.06775437 -0.0797063 -0.0413621 0.04567933
000350 76 c2 5a bd 70 3f 95 bd ca 20 db 3d fc d8 74 3d
       -0.05340811 -0.0728749 0.106996134 0.059777245
000360 70 01 0a 3d b4 93 ba bb f9 a3 d8 3d 9a a0 a6 ba
       0.033692777 -0.005693877 0.1057815 -0.0012712658
000370 52 2c 7c 3d 07 b8 0d 3d 82 18 80 3d 92 03 30 bd
       0.061565705 0.03459933 0.062546745 -0.042972155
000380 65 fc 16 bc e2 7d 46 3d 80 c9 b7 3d 20 7b ef 3d
       -0.009215449 0.048459895 0.0897398 0.11693406
000390 f1 fe 6a bd ed 8c e5 3d b5 fc b9 3a 6f 73 8e bd
       -0.057372037 0.1120852 0.0014189692 -0.06955611
0003a0 19 f7 f0 3d 09 17 5c bd 9a cc ba 3d e2 80 0f 3d
       0.1176588 -0.053732906 0.09121056 0.03503502
0003b0 d5 9e c1 39 e0 d8 84 bd 31 8b f9 3d 6c fe b8 3d
       0.00036930168 -0.06486678 0.12184752 0.09032902
0003c0 40 22 df 3d 1c 76 9b 3d cc a5 f9 3d f6 cf 39 bd
       0.108952045 0.07590887 0.12189826 -0.045364343
0003d0 aa 86 0a bd be b6 8a 3d eb 58 83 3d 9e 2c a7 bd
       -0.033819832 0.067731366 0.06413444 -0.08162807
0003e0 28 ef bb 3d 4d 47 03 bc 30 4b 5d 3c b7 a3 7f bb
       0.09176475 -0.008012605 0.013506696 -0.0039007494
0003f0 a2 06 05 3d 84 d2 10 bd 9e f2 cf 3c c0 29 0b 3d
       0.03247703 -0.035357013 0.025384244 0.033975363

bias f4 [16]
000000 73 72 82 3d ca d1 c3 3d 08 78 6a 3d 56 66 66 bd
       0.06369486 0.095614985 0.057243377 -0.05624994
000010 a0 62 13 bd 9e 28 d7 3d 2f 5e 37 3d ca a0 c0 3d
       -0.035982728 0.10505794 0.044767555 0.09405668
000020 53 84 8e 3d 3f 55 06 bd e6 1d a6 3d d4 5a 06 3d
       0.069588326 -0.03279614 0.081111714 0.032801464
000030 35 43 1d bd f4 03 05 3d 6d 2f 60 3b 67 e3 26 3d
       -0.03839417 0.032474473 0.0034207955 0.04074421

weight f4 [120, 400]
000000 30 d1 cd 3c 4b 0e f3 3c 9a 78 86 bd 48 c5 ef 3d
       0.025124162 0.029669901 -0.06565972 0.1170755
000010 f6 59 cc 3d ee 4b 55 3d 3e 69 a6 3d 55 8f 85 bd
       0.09978096 0.052074365 0.08125542 -0.06521479
000020 d0 1c 47 bd 68 d0 b7 3c 14 c5 af bd 0c 88 23 3d
       -0.048611462 0.022438243 -0.085825115 0.039924666
000030 7c 90 04 bd 97 d8 ba 3d e9 ac 33 3d 10 f8 e1 3d
       -0.032364354 0.091233425 0.04386607 0.11033642
000040 9d 24 a3 bd 61 28 7a 3d 5c 08 91 3d 55 5d 63 bd
       -0.07965968 0.061073665 0.070816725 -0.05550893
000050 df b3 dc 3d 17 83 9f 3d 1e dc 8e 3d b3 86 b9 bd
       0.10776495 0.07788675 0.06975578 -0.09058895
000060 7c ee ce 3c da 44 bc bc e7 72 22 bd b8 76 bf 3d
       0.025260203 -0.02298205 -0.03966036 0.09348816
000070 5f 3f 92 bd 15 09 30 bd 74 c9 99 3d 0c b7 3e bd
       -0.07140993 -0.04297741 0.07509127 -0.046561286
000080 ad 54 36 bd e8 05 27 3c c1 9d 3e 3d 9d 21 73 3d
       -0.044514347 0.010194279 0.046537165 0.059358228
000090 7a f9 f1 3d 52 a3 7d 3d eb 66 8e bd 4e fb 4a 3b
       0.11815162 0.061923333 -0.06953224 0.0030972543
0000a0 e8 c4 63 bc 58 23 43 bd e4 2e c1 3d d6 95 ce bb
       -0.013901927 -0.04764113 0.09432772 -0.006304483
0000b0 42 61 89 bd ff e5 2c 3d e7 b0 eb 3d 41 45 0d bc
       -0.067080036 0.04221153 0.11508351 -0.008622468
0000c0 74 32 96 bd 83 f4 2c bd fb 41 d8 bc ab 11 f8 3c
       -0.07333842 -0.042225372 -0.02639865 0.030281862
0000d0 02 15 d0 3d ea 98 10 bc 60 f2 e9 3d 54 23 e7 3d
       0.10160257 -0.00882552 0.114231825 0.11286035
0000e0 40 17 04 3d 74 28 ec 3d 42 0f cb 3d 9b c0 ba bd
       0.032248735 0.11531153 0.099150196 -0.09118768
0000f0 bd 12 ef ba df e4 de 3d 40 11 a3 3d cf c8 c6 bd
       -0.0018239837 0.108834974 0.079622746 -0.0970627
000100 b1 9e 70 3d 52 80 02 bd ed b1 6a bc 0a da fa 3c
       0.05874509 -0.031860657 -0.014324647 0.030621547
000110 31 6a 76 3d fe cf 8c bc cc 39 c3 bd ad e9 84 3d
       0.060159866 -0.017189022 -0.09532508 0.064898826
000120 39 55 ec bb 47 df c0 bd b3 28 b9 bd a6 dc bb bd
       -0.007212308 -0.09417587 -0.09040966 -0.09172945
000130 12 07 82 3d ae 40 be bd d3 49 1a bd 97 77 c2 3d
       0.06349005 -0.092896804 -0.03766806 0.09495466
000140 d5 88 7b 38 39 a4 e3 3d 3a 25 63 bd f5 4e a5 bd
       5.9970498e-05 0.11115307 -0.055455424 -0.080717005
000150 fb 24 a9 bc cb 64 82 bd 9d 8f ac bc 52 12 1e 3d
       -0.020647516 -0.06366881 -0.021064574 0.03859169
000160 db ee 61 bc 89 2e fd 3c a7 fe 35 bd f9 2b 65 bd
       -0.013789858 0.030905979 -0.04443231 -0.05595014
000170 87 9a 88 bd c6 1d c3 bd 80 f6 ae 3d c2 aa 3a 3d
       -0.06670099 -0.09527163 0.0854311 0.045573004
000180 9e 68 73 3d 96 e1 89 bd a3 81 a7 bd c5 47 29 3d
       0.059425943 -0.0673248 -0.08179023 0.04132821
000190 64 14 83 3d e7 3b 9b 3c 09 9a b0 3d 66 93 b7 3d
       0.064003736 0.018949462 0.0862313 0.08963661
0001a0 79 f3 f4 bc a8 6b 93 3d 09 8d e2 3d 7c a9 e8 3d
       -0.029901253 0.07198268 0.110620566 0.113604516
0001b0 b3 70 8a 3c b4 36 cc 3d da 4d bd bd e7 a8 20 bc
       0.016899442 0.09971371 -0.09243365 -0.009805894
0001c0 e5 7d 1a bd 52 6f 81 3b 58 57 15 bd 86 bd 21 bc
       -0.03771772 0.003950038 -0.03646025 -0.009871846
0001d0 d0 94 29 bd 41 3c e8 3d 58 4b 42 3d 2c 7c 6f 3d
       -0.041401684 0.113396175 0.047435135 0.05846803
0001e0 be c9 b1 3c 91 c3 30 3b 5a 9b c4 bc d7 df f4 3b
       0.021702643 0.0026972035 -0.023999859 0.007472973
0001f0 63 2d ed 3d 3b 01 bf 3d 20 6b 4c 3d df 7a 93 bd
       0.115809225 0.093264066 0.04990685 -0.0720117
000200 c8 e8 5b 3b b1 22 d8 bc 4c ae 86 bd 3e 5e 8d 3b
       0.0033555496 -0.02638373 -0.06576213 0.004314213
000210 c6 d8 2b 3d e2 d4 7b bd 53 86 d7 3d 54 e0 b7 bd
       0.041954778 -0.061482318 0.10523667 -0.08978334
000220 19 c9 8c bc a9 6c d7 bc 17 ab 47 bd 2e 5b 80 bc
       -0.017185735 -0.02629693 -0.04874715 -0.015668478
000230 b1 b1 cf bb e4 4e 7c bd 9f cc 53 3d 76 91 a6 bd
       -0.006338321 -0.061598673 0.051708814 -0.08133213
000240 d5 41 1b bc 9f d5 d5 bc f1 9e 4b bd ad 07 8e 3c
       -0.009476145 -0.026102839 -0.049712125 0.017337644
000250 96 6b 1d bd 6a 45 79 bd 24 6b 31 3d e6 82 b2 bd
       -0.03843268 -0.060857214 0.043315068 -0.08716373
000260 06 16 9d 3d bd 65 08 bc 90 50 95 3d 03 33 f7 bc
       0.07670216 -0.008325038 0.07290757 -0.030175691
000270 a0 c8 3c 3d 2c 72 81 bd 27 c3 b8 3d 88 c4 76 bd
       0.04608977 -0.06320605 0.09021597 -0.06024602
000280 34 b7 8e bd e5 11 c7 bc 64 03 92 3d 69 db f5 3b
       -0.06968537 -0.024300525 0.07129553 0.0075029624
000290 e5 12 6d bd a2 bb d8 3d bb 1a 88 3d 35 14 b3 3d
       -0.057879347 0.10582663 0.066457234 0.087440886
0002a0 2e 44 ad bd 6c 26 b4 bd 5c 1b 9f 3b 98 8d f6 3c
       -0.0846027 -0.08796391 0.0048555564 0.030096814
0002b0 3c 97 b4 3d f5 9a af bd 74 b2 99 3d a2 c9 a1 bd
       0.08817908 -0.085744776 0.0750474 -0.078997865
0002c0 7e 6a de 3d 54 ea 18 3c 78 16 8f ba f1 bc 55 bc
       0.108601555 0.009333212 -0.001091673 -0.013045535
0002d0 f7 28 9e bc ff ac 53 bd 80 ac 5e 3d 75 78 a6 bd
       -0.019306643 -0.051678654 0.054363728 -0.08128444
0002e0 51 de 99 3b 8e 06 5a 3d fa cb 17 3c 51 d4 47 3d
       0.0046956916 0.053228907 0.00926494 0.048786465
0002f0 ac 6d b7 3d 62 50 93 3d dc 6a c2 3d 0f 16 b0 bd
       0.08956465 0.07193066 0.09493038 -0.08597957
000300 dd 91 a6 3d 85 fd 75 bb 3f a4 17 3c 59 05 26 bd
       0.0813329 -0.0037535143 0.009255468 -0.040532444
000310 09 d6 33 bc d8 08 ed 3d 8a b6 59 bd db 02 be 3d
       -0.010976323 0.115739524 -0.0531526 0.092778884
000320 70 4a 7c 3c 27 65 fe 3b 24 ea 8f bd d1 a2 e0 3d
       0.015398607 0.007763523 -0.07027081 0.10968555
000330 94 41 8d 3d 97 99 ab 3c 73 a1 31 bd de 45 16 3c
       0.06897274 0.02094726 -0.04336686 0.009171931
000340 fb 43 e4 3c 8a f6 88 bd 79 f2 5e 3d 9b 7e bd 3d
       0.027864447 -0.066876486 0.05443046 0.09252664
000350 f1 6a cb 3d d9 86 41 3d 7b 79 80 bd a3 50 83 bd
       0.09932507 0.04724774 -0.062731706 -0.064118646
000360 db e9 8c 3a 40 f0 9b 3c 21 de 69 bb 43 4f be 3d
       0.0010750847 0.019035459 -0.0035685378 0.09292462
000370 1d 94 bd 3d 70 87 5c 3d 89 ad 10 bd 9e 93 20 bc
       0.09256766 0.0538401 -0.035321746 -0.00980082
000380 09 cd 08 3d 37 a3 dc 3d 0e 59 60 3c 76 cc aa 3d
       0.03339866 0.10773318 0.013693107 0.08339779
000390 7f 3a b8 3c 4a 1d 2f bc 05 e8 76 bd 88 6a b6 3d
       0.02248883 -0.010688135 -0.060279865 0.08907038
0003a0 48 fd 69 3c 72 0f 89 3c 9a 35 80 3d a0 da 74 bd
       0.014281578 0.016730998 0.06260224 -0.05977881
0003b0 aa e6 df bb 02 e9 df 3d d5 63 8e 3a 35 c6 ec 3c
       -0.006832917 0.109331146 0.0010863492 0.028903106
0003c0 40 8f 71 bd ae 7c 7c bd a7 6b af bd 1f e9 95 3c
       -0.058974504 -0.06164234 -0.08565455 0.018299637
0003d0 de 86 92 bb f4 aa 13 bd e8 b4 a6 3d 5f a4 9f bd
       -0.004471644 -0.036051705 0.08139974 -0.07795023
0003e0 7a fc 5c 3d e2 e5 ab 3d 94 6a 86 3d f3 43 67 bd
       0.053951718 0.08393456 0.06563297 -0.056461286
0003f0 d0 73 81 bc 90 aa 5c bd 09 54 1c bc 38 c8 ae bd
       -0.015802294 -0.0538736 -0.00954152 -0.085342824

bias f4 [120]
000000 19 95 6d 3d 2c 16 3a 3d ac 28 5b 3d 1d 3d 32 3d
       0.05800352 0.0454313 0.053505585 0.043515313
000010 53 0b 76 bc 11 ea 6b bd bf 75 81 3d a4 94 2d 3d
       -0.015017348 -0.05759627 0.063212864 0.042378083
000020 9c 7b c7 bc 70 55 34 3d 2b 05 33 3b 09 be 00 3d
       -0.024350934 0.044026792 0.0027316313 0.03143123
000030 c9 4e 22 bd 58 ec bc bc 9f 71 df bc c5 da 58 3d
       -0.039625917 -0.023061916 -0.027275858 0.05294301
000040 73 f6 4a 3c b8 37 a1 bc 94 06 20 3d 07 36 14 bd
       0.01238786 -0.01967989 0.039068773 -0.036184337
000050 04 e5 84 3d 5d a4 0c 3d 18 b9 39 3d b0 12 01 3c
       0.06488994 0.034336437 0.045342535 0.007877991
000060 c1 41 81 bc 17 bf f3 3c 31 00 15 3c 0d 33 94 bb
       -0.015778424 0.029754205 0.009094284 -0.0045226873
000070 df bd 66 3c d5 5a a5 bc 04 1f ef bc 8a 46 86 3c
       0.014083355 -0.020184914 -0.029189594 0.016391058
000080 c5 11 7d 3d 21 99 dd bc 62 93 16 3c de 5d 3a bc
       0.061784524 -0.027050557 0.009190412 -0.011374919
000090 6a ef 47 3d ab de 31 bc f1 08 37 3c ef 4b bb bb
       0.048812307 -0.010856311 0.011171565 -0.005715839
0000a0 61 ec 10 3d 98 14 62 3b 15 26 af 3c 6c b6 c8 3c
       0.03538168 0.0034497138 0.021380464 0.024501048
0000b0 f8 46 9a 3c 33 51 fd ba ff 1a 74 3b 10 e4 c8 bc
       0.018832669 -0.0019326567 0.0037247536 -0.024522811
0000c0 f5 65 25 3d 56 b8 37 3d 7b f6 06 bc 2f 08 53 bc
       0.040380437 0.04485353 -0.008237476 -0.012880369
0000d0 0a 38 2a 3d da 3c 21 3d 99 30 0c bd be d2 b3 3c
       0.04155735 0.039364673 -0.034226034 0.021951076
0000e0 2f fe f1 3c 25 ea a9 bc cf be 26 bc a1 cc 00 bd
       0.02954015 -0.020741532 -0.010177328 -0.03144515
0000f0 c1 25 05 3d c7 f2 8a 3c a4 ec 1b 3c 98 1d 25 3d
       0.032506708 0.016961468 0.009516869 0.040311426
000100 16 bb 1c bc 97 32 07 3d 4d 50 10 bd ed 6c 60 3a
       -0.009566089 0.03300723 -0.03523283 0.0008561153
000110 7f 35 51 bc ae 2d 9c bc 6a d0 4f bd 78 44 07 bd
       -0.012769102 -0.01906475 -0.05073587 -0.03302428
000120 18 a2 fa 3c 6b d5 75 3d 3f a5 0f 3b fd 60 3a 3d
       0.03059487 0.060017984 0.0021918563 0.04550265
000130 b9 37 0b 3a 55 08 4a 3d 47 5e c9 3c b3 a9 71 bd
       0.00053107325 0.049324352 0.024581088 -0.05899973
000140 e3 70 35 3d 11 b8 bf 3c 04 9b 27 bd 3c b6 12 3d
       0.04429711 0.0234032 -0.04091932 0.035818323
000150 38 09 ad 3c c7 48 7d 3b 3d b9 b2 bc e4 75 27 bd
       0.02112256 0.0038648115 -0.021816844 -0.040883914
000160 ba 90 64 bd 6e 6a 28 3c f7 ff 0d bb 61 0f 85 3d
       -0.055802085 0.010279281 -0.002166746 0.06497074
000170 d4 05 d1 bb 2f 47 56 3b 8a bd d1 3c f4 9c 02 3c
       -0.0063788686 0.0032696237 0.025603075 0.007971991
000180 d0 28 0a bb 55 4b 4b 3d 3a cd a4 3c ea 48 fc bc
       -0.0021081455 0.04963239 0.02011739 -0.030796487
000190 44 4c 0a bd 2a c2 4f bc dc c7 ad bc 8b 22 a5 bc
       -0.03376414 -0.01268057 -0.021213464 -0.020158073
0001a0 0d d6 42 bb fd 6e 20 bd c5 0d d0 3c e8 ae 1a 3c
       -0.0029729635 -0.039168347 0.02539719 0.009441115
0001b0 c3 0f 3f bd 11 15 08 3d 1d 37 22 bd 48 cc 18 bd
       -0.04664589 0.033223215 -0.03960334 -0.037304193
0001c0 7d 14 5c bc b0 de a1 3c 4a 5e 2a bc fa f3 53 3c
       -0.013432619 0.019759506 -0.010398457 0.0129365865
0001d0 23 67 ec bc a5 79 a3 3b 86 fb 37 3c 8d d2 48 bc
       -0.028857773 0.0049888664 0.011229401 -0.0122572305

weight f4 [84, 120]
000000 5d 74 60 bd 39 a4 2b bb 52 5e 39 be b0 c9 ba bd
       -0.054798473 -0.0026190414 -0.18102387 -0.091205
000010 37 a3 6c bd 66 73 27 3d c6 50 54 be f0 60 21 3d
       -0.05777284 0.040881537 -0.20733938 0.039399087
000020 d4 e0 e2 3d 5f c0 36 be e8 df 6b 3d 10 d4 32 bd
       0.11078039 -0.17846821 0.05758658 -0.04365927
000030 5f e2 99 3d c8 d0 87 3d e1 35 aa 3d ff 98 79 bc
       0.0751388 0.06631619 0.08311058 -0.015234231
000040 4a 92 8b 3d 57 f8 78 3d b7 4d c6 3d 2c 27 58 bc
       0.06815012 0.06078371 0.09682792 -0.013192933
000050 bc c2 59 be 84 71 30 3d 97 4e 71 bd da db 3b be
       -0.21265692 0.043077007 -0.05891284 -0.18345585
000060 69 68 a0 bd 04 e3 6e bd 74 07 cc bd ac c2 f1 bc
       -0.07832415 -0.058321968 -0.09962359 -0.029511772
000070 27 1f e8 3d da ff 0c be dd d4 57 be 10 c2 26 bd
       0.11334067 -0.13769475 -0.21077295 -0.040712416
000080 69 e5 2d bd f7 b3 f0 bd 3a e3 4d be 52 bd ae bd
       -0.04245511 -0.117530756 -0.20106211 -0.08532204
000090 0e 72 28 3d e8 3c 50 be 46 af 31 be ec b3 83 3d
       0.041124396 -0.20335734 -0.17352018 0.06430802
0000a0 2b 17 27 bd ca e7 b2 3d 02 e2 80 bb 6c 67 4e be
       -0.04079358 0.087356165 -0.003933192 -0.2015664
0000b0 09 e6 c2 bd 31 80 b5 3d 83 6e 1d bd db dc 88 bd
       -0.09516532 0.08862341 -0.03843547 -0.0668275
0000c0 55 a5 11 3c ae b7 eb 3c b4 12 9d bd f5 a9 56 3d
       0.008889516 0.028774109 -0.07669583 0.052408177
0000d0 dc 76 fc 3d 18 54 66 3d 13 0d 0f be 40 6f cc 3d
       0.12327358 0.05623254 -0.13969831 0.09982157
0000e0 88 fa 3a be 32 0a 0d be b5 c4 18 3e cf 50 47 bd
       -0.18259633 -0.1377342 0.14918788 -0.04866105
0000f0 cc 44 28 be ea b8 2a 3d 9f c3 52 be 0f ed 51 3b
       -0.16432494 0.041680254 -0.20582436 0.0032032167
000100 ba ec 40 be 7d e1 5e bd 87 ab 1a be 50 77 14 be
       -0.18840304 -0.05441426 -0.15104495 -0.14498639
000110 0d ed 3f 3b 59 b1 af 3d e0 c3 d1 3d fb 53 44 bd
       0.002928558 0.08578748 0.10242438 -0.047931653
000120 55 bd 0c be d9 aa 02 be d3 53 a0 bd aa c0 3e 3c
       -0.137441 -0.12760486 -0.07828488 0.011642614
000130 0e 61 27 3d 5f 8f 9f bd 25 a8 89 bd 29 1b 32 3d
       0.040864043 -0.07791018 -0.06721524 0.043482933
000140 28 b1 ea 3c c4 1e e4 3d 92 d6 6a bd 00 35 ba bd
       0.028648928 0.111386806 -0.057333536 -0.0909214
000150 04 d3 15 be c7 7e ad 3b 9a db f1 3d 4e 41 74 bd
       -0.14631277 0.005294654 0.11809464 -0.059632592
000160 40 ef 95 3d 3e 87 20 bd dd 2e 14 be 70 a6 49 be
       0.07321024 -0.039191477 -0.14471002 -0.19692397
000170 8e 21 5d 3d b9 50 0d be f6 24 f4 bd 97 87 50 3d
       0.05398708 -0.13800324 -0.11921112 0.05091056
000180 01 08 18 bd 4c 8c 2e be 7a 58 24 be 03 9f ea 3c
       -0.037117008 -0.17045707 -0.16049376 0.028640276
000190 ef e0 b9 bd 1e f7 80 bd 66 c9 64 3d e0 68 0f be
       -0.09076106 -0.06297134 0.05585613 -0.1400485
0001a0 09 83 b4 3c 75 21 67 3d 75 55 62 bc 17 e9 33 be
       0.022035139 0.05642839 -0.01381432 -0.17569385
0001b0 5e 91 fc bd 12 c4 e6 bc 76 a0 06 be 86 83 df 3d
       -0.12332414 -0.028169665 -0.13147148 0.10913758
0001c0 ba 92 68 be 04 ea ee bd ac 57 99 3d 50 73 85 bd
       -0.22712222 -0.11665729 0.07487425 -0.06516135
0001d0 45 a1 23 bd 31 b0 69 bd d8 eb 72 bd d2 94 86 bd
       -0.03994872 -0.057052795 -0.05930695 -0.06571354
0001e0 e2 d4 8f bd 9c f2 ec 3d ef 59 93 bd 9f b6 fd bd
       -0.07023026 0.115697116 -0.07194888 -0.12388348
0001f0 57 c9 c9 bb 91 b7 dc bd 48 c0 09 3d 0c 59 21 3d
       -0.006158035 -0.107772 0.03363064 0.039391562
000200 e2 e6 09 be f1 ef 9e bd 1b 95 08 be 68 af 49 bc
       -0.13466981 -0.07760609 -0.13338129 -0.0123098865
000210 95 3d 3c 3c 27 11 02 be fe 37 0d 3d 1a 4d 00 be
       0.011489292 -0.12701856 0.034477226 -0.12529412
000220 1c f0 45 bd 7a 56 09 be db f5 e2 3c 82 ed 94 3d
       -0.04832469 -0.13411894 0.027705124 0.072718635
000230 21 d6 bc bd 5d 7f cd 3d 59 a9 44 be 25 97 75 3d
       -0.09220529 0.10034058 -0.19205226 0.059958596
000240 80 e6 16 be 4d 36 0e 3d 92 dc e9 3b 67 87 d8 bd
       -0.14736366 0.034719754 0.0071368897 -0.10572701
000250 2d 2f 01 3e ab df b2 3d d6 a0 09 be 2a 5b 3e bd
       0.12615652 0.087340675 -0.1344026 -0.04647366
000260 a1 93 89 bd 6d 92 6f bd 6a a6 e8 bd 4e 12 29 be
       -0.06717611 -0.058489252 -0.11359866 -0.16510889
000270 9b 03 9f 3d c5 92 8c 3d 7b de 3f be 4f 9b 5b be
       0.077643596 0.068639316 -0.18737213 -0.21445964
000280 41 80 bc 3d c3 f8 f0 bd 31 64 44 bd f0 99 55 be
       0.0920415 -0.117661975 -0.047947112 -0.20859504
000290 ae 9e 46 be 90 2e 1b be 47 ac 99 bd 00 c2 ef bc
       -0.19396469 -0.15154481 -0.075035624 -0.029267311
0002a0 96 21 b1 3d f3 42 51 bd 04 49 0b be 32 a7 68 bd
       0.08648984 -0.05108924 -0.13602072 -0.056800075
0002b0 57 18 cc 3b b5 52 3b bd e6 91 87 3d f2 99 c7 3c
       0.0062284875 -0.045733172 0.06619625 0.024365399
0002c0 c7 a4 6e be 50 31 3a be 2f 5c ae 3d 74 15 67 bd
       -0.23305045 -0.18182874 0.085136764 -0.056416944
0002d0 01 3c 24 bd 65 31 1e be 8e 6b de 3d b1 86 3e bc
       -0.040096287 -0.1544853 0.10860358 -0.011628793
0002e0 4b 5f 49 be 23 41 da bc bd 51 c2 3d 5a ef 3c bc
       -0.19665258 -0.026642388 0.094882466 -0.011531675
0002f0 fd c2 e1 bd f1 9b 86 3d 02 2d 5e bd 28 ab 17 3e
       -0.11023519 0.06572712 -0.05424214 0.14811385
000300 f9 7e 19 be d4 07 8d 3c ae 57 59 bd b7 f6 af bc
       -0.14989842 0.017215647 -0.053062133 -0.021479947
000310 95 43 20 be 15 3a a5 3d 86 07 1f be 1c 97 33 3d
       -0.1565078 0.08067719 -0.15530214 0.04384528
000320 81 86 fe bd 0e bb 81 3c bf 20 80 3c e9 95 63 bd
       -0.12427998 0.015836265 0.015640615 -0.055562887
000330 d6 c5 47 bd 60 d2 4a be af 73 19 be 15 02 85 bb
       -0.048772655 -0.19806814 -0.14985536 -0.004059086
000340 ac 22 24 be 6f c1 04 bc 10 6a 10 bc de a9 92 bd
       -0.16028851 -0.008102759 -0.00881435 -0.07161306
000350 b1 d8 b4 3c 20 19 c1 bd 27 27 0d be 60 4d be 3d
       0.022075983 -0.0942862 -0.13784467 0.09292102
000360 b0 fe 97 3d 78 f3 44 3d af bc 55 be 42 6e f7 3c
       0.07421625 0.048083752 -0.20872758 0.030203942
000370 64 14 98 bb be f7 d8 bc c9 0b c6 bd 6e 10 34 3d
       -0.0046411026 -0.02648532 -0.096702166 0.04396098
000380 0e a5 c1 bd 88 fd d4 3c 20 72 1e be 8e 70 da 3c
       -0.0945531 0.0259998 -0.15473223 0.026664998
000390 67 fd 0b be 60 a2 00 be a3 fa 3f bd 7b 22 a2 3d
       -0.13670884 -0.12561941 -0.046869885 0.07916733
0003a0 37 ff 65 be 7a c2 1a be 85 5d 0d 3d 91 b1 bd bd
       -0.22460638 -0.1511325 0.034513015 -0.09262384
0003b0 1f 77 46 3c 80 d8 77 3d a2 f5 93 bd 30 21 0f 3c
       0.012113362 0.060509205 -0.07224585 0.00873594
0003c0 80 ca c8 bb dc 29 d0 bd 9d 40 f9 bd 31 7b 26 be
       -0.0061276555 -0.10164234 -0.12170527 -0.16257931
0003d0 f3 be 9d bc f5 3a 23 3e ef aa db bd 51 b9 f1 bd
       -0.01925609 0.15940459 -0.10725962 -0.118029244
0003e0 f1 5d d4 bd f8 9d 74 bd 8f af 0f 3d 7b 61 ab bd
       -0.103694804 -0.059720963 0.035079535 -0.08368202
0003f0 c2 cb cb 3d 63 39 d5 bc 7d a6 43 be 8b 38 f9 bd
       0.09950973 -0.02602834 -0.19106479 -0.12168988

bias f4 [84]
000000 33 dd dc bd 06 4c aa 3b fd af ce bd 9b 7a c3 bd
       -0.10784378 0.005197051 -0.10092161 -0.095448695
000010 c3 db 09 be 49 46 52 bc 48 5e 86 bb 43 0e c2 bd
       -0.13462739 -0.01283414 -0.0041005947 -0.094753765
000020 45 85 e9 bd a5 31 f9 bd 44 f7 4c bd 6b 5d 98 bd
       -0.11402372 -0.12167672 -0.0500405 -0.07439693
000030 01 cf a7 bd 0b 13 a2 bc 19 6e f3 bd 54 ef 0e be
       -0.0819378 -0.019784471 -0.11886234 -0.13958484
000040 02 61 09 be e9 17 de bd 73 6b 6d 3c 7e 44 98 bd
       -0.13415912 -0.10844404 0.01449095 -0.07434939
000050 4b 3c b6 bd 60 98 21 b9 0a c2 1a be e7 27 01 be
       -0.08898219 -0.0001541092 -0.15113083 -0.12612878
000060 3c e5 37 3d e9 38 5b bd 95 67 13 be 55 81 da bd
       0.04489635 -0.05352107 -0.14394982 -0.106691994
000070 01 0a 9a bc 62 45 55 bd e9 91 f7 bc 73 02 2c be
       -0.018803598 -0.05206812 -0.030220943 -0.1679781
000080 26 3f a5 bb f9 db 2c bc b3 8c 08 be 01 6c ba bd
       -0.0050429283 -0.010550492 -0.13334922 -0.09102631
000090 fa 32 0b be 23 d5 79 bd 5f 3d 7b bd d0 e5 0e 3d
       -0.13593665 -0.06099428 -0.061337825 0.034887135
0000a0 80 ee 04 3c 8d 65 03 bc ee 86 8c bc 30 6a a6 bd
       0.008113503 -0.008019817 -0.017154183 -0.081257224
0000b0 5b 1a 8a ba b3 f1 44 bc 7a f3 ce bc e5 e3 15 be
       -0.0010536419 -0.012020516 -0.025262583 -0.14637716
0000c0 32 9f 1d be 97 4b 23 3c 12 50 cf bd 1c 0b a5 bd
       -0.1539276 0.0099667525 -0.10122694 -0.080587596
0000d0 3e 32 95 bd 43 70 3d bb f4 b5 66 bd b6 b8 08 3c
       -0.072849736 -0.0028906025 -0.056325868 0.00834482
0000e0 bb d4 a7 bd 24 65 3a bd b0 5b 9e bd 0e 25 59 3c
       -0.08194872 -0.04550661 -0.07732332 0.013253463
0000f0 aa 75 e6 bd 19 bc 3c bd f2 d2 6d bc 40 02 f5 bc
       -0.112529114 -0.04607782 -0.014515625 -0.0299083
000100 ce a1 ec bd df 88 fe bd 09 fb c7 bd 17 1e 84 bd
       -0.11554299 -0.1242845 -0.09764678 -0.06451052
000110 43 62 1a be 15 15 02 be ee 89 f3 bd f7 9b 89 bd
       -0.15076546 -0.12703355 -0.118915424 -0.06719201
000120 5f 2a 57 bd b4 c9 05 be f6 d2 72 bd 94 70 58 bd
       -0.052530643 -0.13065225 -0.05928322 -0.052841738
000130 a1 35 06 be 37 98 b1 bd ae 22 13 be 60 c6 21 bd
       -0.13106395 -0.08671611 -0.14368698 -0.039495826
000140 3b ab 57 3c e4 0d f2 bd 8f 2c 09 bd bc b9 9c 3c
       0.013163383 -0.11819056 -0.03348976 0.019131534

weight f4 [108, 84]
000000 70 37 a2 bd a1 11 13 bd d8 1b 95 bd 2e d2 26 be
       -0.0792073 -0.035905484 -0.072807014 -0.16291115
000010 d5 95 47 bd b0 b5 15 be 24 e6 14 bd 64 a0 cf 3b
       -0.048726875 -0.1462009 -0.03635229 0.0063362587
000020 1c 3d 4d 3d d9 ed 0a 3c 3f 25 19 be 79 ac aa 3c
       0.050107107 0.008479559 -0.14955615 0.020834194
000030 74 cc 37 3d 4d c0 8d 3d 90 cc df bd a2 f9 2a be
       0.044872716 0.06921444 -0.10927689 -0.1669679
000040 12 0c dc bd 55 e7 a1 3c 3b 1d bb bd 41 18 99 bd
       -0.1074449 0.019763628 -0.09136435 -0.07475329
000050 79 b5 13 be 91 65 c6 3d 5f f4 f1 3d 65 10 1a 3e
       -0.14424695 0.09687341 0.11814188 0.15045317
000060 dd bc cc 3d c6 fe fa 3d fb ba 02 be 14 af 24 3d
       0.0999696 0.122556254 -0.1276664 0.04020603
000070 6d 5c 7d 3d de bd cf 3d fc 0d 67 3d c2 55 a4 3d
       0.061855722 0.10143636 0.05640982 0.080241695
000080 b6 2c 2a be 33 43 ae bd 25 98 3f bd 4a 0a bc bc
       -0.16618618 -0.08508911 -0.046775956 -0.022954125
000090 19 05 0e be 60 19 95 bb a6 69 c1 3d 20 54 b5 bc
       -0.13869132 -0.004550144 0.09443979 -0.02213484
0000a0 86 f4 32 bb 23 23 8e 3d 6b 4c f7 3b 2c cf 2f be
       -0.0027306392 0.069402955 0.0075469515 -0.17168874
0000b0 6c 66 44 3d 47 96 92 3c 9c c4 65 3d 7c 93 5b ba
       0.04794924 0.017893923 0.056095704 -0.0008376164
0000c0 6b 6c e8 3d fb 2c 2b bc 77 a5 a5 bb f7 85 7f 3d
       0.11348804 -0.010447736 -0.0050551253 0.06238362
0000d0 4c 12 41 3c 41 23 2d be 9a b6 a9 3d aa b3 41 3d
       0.0117841475 -0.1690798 0.082867816 0.04729048
0000e0 ea 35 0e be b5 cd 01 3e 7c 5c fe bd 5b d6 c8 bc
       -0.13887754 0.12676127 -0.12419984 -0.024516275
0000f0 6b e2 bf 3c 10 28 10 3d 00 ab 85 3d cd 7d d1 3d
       0.023423394 0.035194457 0.06526756 0.10229073
000100 3f d6 82 3c 1f 79 a6 bb 3d 3e 50 bd df b4 00 be
       0.015971301 -0.0050803567 -0.050840605 -0.12568997
000110 4c 11 06 3e 30 9c 8a bd 9b 75 09 be 34 2b 71 3a
       0.13092536 -0.06768072 -0.13423769 0.0009199858
000120 60 d1 ed 3d 3c 08 31 be 48 87 e5 bd 5f 78 a0 bd
       0.11612201 -0.17288297 -0.112074435 -0.07835459
000130 59 41 08 3e 68 98 e3 3d d9 ce 0d 3e 87 d6 ea 3d
       0.13306178 0.111130536 0.13848437 0.11466699
000140 f9 e7 95 3d 1d 9f 93 bd 7c b1 97 3c dd aa 59 bd
       0.07319636 -0.07208083 0.018517248 -0.053141464
000150 85 d9 6c 3d 5e 5f 8f 3d 79 58 d7 bd 30 77 d9 bd
       0.05782463 0.07000612 -0.10514922 -0.10618436
000160 d2 50 17 3e 48 7a 9c bd 1e ad 86 3c 11 4c da bd
       0.14776924 -0.07640511 0.01643997 -0.1065904
000170 ff 56 0a be 08 bf 1f be 1d 65 40 3d 62 5d f7 3d
       -0.13509749 -0.15600216 0.04697143 0.12078358
000180 f9 dd 23 be 47 37 99 bd 8c e5 ec 3d 28 a0 0b 3d
       -0.16002645 -0.074812464 0.1156722 0.034088284
000190 20 a7 cf 3c c7 16 34 bc 57 aa 2a 3c cb 8c c3 bd
       0.025348246 -0.010991759 0.010416589 -0.095483385
0001a0 a7 03 56 3c eb 49 1b 3e aa 90 81 3d a0 ef f7 3d
       0.013062394 0.15164916 0.063264206 0.12106252
0001b0 50 bf f4 3d fc 67 cf 3c 1b a1 fb bc 19 4d 15 be
       0.119505525 0.025318138 -0.03071647 -0.14580192
0001c0 49 a6 9d 3d 18 3d 14 3e 28 53 95 3c f6 ab c1 3d
       0.07697732 0.1447643 0.018228129 0.09456627
0001d0 2f d4 ad bc 71 2e d1 3d e0 d1 0c bd e9 71 9c 3d
       -0.021219341 0.10213936 -0.03437984 0.07638914
0001e0 07 d4 dc 3d 00 07 d4 3b c8 9c 96 bd 0d 7b 25 be
       0.107826285 0.006470561 -0.073541224 -0.16160221
0001f0 7f c9 64 3c 1e c4 06 3e 1a e2 39 bd 64 c7 26 3e
       0.013964056 0.1316075 -0.045381643 0.16286999
000200 09 a9 a1 bd 01 33 e9 3c 5f a0 1f be ee 67 e5 bd
       -0.07893569 0.028466703 -0.1558852 -0.11201464
000210 ac f6 06 bd 08 65 14 3e 2d 31 84 bd 9e b7 11 3e
       -0.03295009 0.14491665 -0.06454692 0.142302
000220 18 bf e6 bd 1a 8a 8d 3d 45 bc a5 bd f4 d0 48 3d
       -0.11266917 0.069111064 -0.0809255 0.0490274
000230 34 a7 f6 3c 28 69 23 3e 07 2a 25 be bb 7c 2c 3c
       0.030109026 0.15958083 -0.16129313 0.010527785
000240 79 f4 10 be 91 30 1c be 2a 5c 8e 3d 6e 10 90 3d
       -0.14155759 -0.15252902 0.06951173 0.07034384
000250 34 5d 27 be 7b 10 f9 3b ac 0c d4 bd 81 2a 11 be
       -0.16344148 0.0076008416 -0.103539795 -0.1417637
000260 13 f7 bf bd 5c d4 0e be a6 cf 23 be 9b 4f 13 3e
       -0.093732975 -0.13948196 -0.1599718 0.14385836
000270 ac 48 86 3d 5b 86 8c bc 2c 5f 47 3c 4d 5c 12 be
       0.0655683 -0.01715391 0.012168687 -0.14293022
000280 06 10 bf bd 40 2a 2c 3e a4 fc 8b 3d 07 a7 0c be
       -0.09329228 0.16812992 0.06835297 -0.13735591
000290 bf cd ca bd 70 82 ec bd 7e ec 1c be b2 c6 fc bc
       -0.09902524 -0.115483165 -0.1532459 -0.030856464
0002a0 b1 6f 30 3d 0b 40 9a 3d 53 c0 f7 3d 8b 33 80 3d
       0.043075267 0.075317465 0.1209723 0.06259831
0002b0 9e 89 ec 3b ee 32 1d 3e 23 f1 fa bc 8b cf 98 3d
       0.0072185537 0.1535146 -0.030632561 0.07461461
0002c0 a7 c9 0b 3e 78 cb 4f 3c 2c 32 cb bd c3 f0 23 3d
       0.13651143 0.012682788 -0.09921679 0.04002453
0002d0 4e 97 01 3d 82 1e d3 bc 49 0d c9 3d 04 59 1a 3e
       0.031638436 -0.025771383 0.09816987 0.1507302
0002e0 1c 73 14 be 17 b2 17 3e 19 9a 48 3d a6 71 c5 3d
       -0.14497036 0.1481403 0.048975084 0.09640817
0002f0 f4 f9 77 3d 04 56 07 3e de 8c 80 3a 03 a1 81 3d
       0.06054111 0.13216406 0.0009807607 0.06329539
000300 b1 fd b6 bd 55 0f 8c bd a6 ba 22 3c 25 b8 d4 bd
       -0.089351065 -0.06838862 0.009932196 -0.10386685
000310 07 d0 98 bd 30 c2 32 be f9 0d b3 3d f8 25 27 bc
       -0.07461553 -0.17456889 0.087428994 -0.010201924
000320 f8 d8 e1 3d d4 ff e4 3b 19 bc 39 3d d3 ee ba 3c
       0.11027712 0.006988505 0.0453454 0.022818958
000330 bd 57 e7 bd 7c dd 48 bd 30 02 37 be c0 5b 6f 3b
       -0.112960316 -0.04903935 -0.17871928 0.0036523193
000340 9b c5 2f 3d a4 c2 e3 bd 39 32 95 3c 82 76 e8 3c
       0.04291306 -0.11121109 0.018212425 0.028376821
000350 cb b6 02 be e1 5c dc bc 7f 96 4c bd 6c 60 7d 3a
       -0.12765042 -0.026899757 -0.04994821 0.0009665552
000360 48 3e ba 3d 96 32 4a bc 6e 93 8b bd cb 63 8c bc
       0.090939105 -0.012341162 -0.06815229 -0.017137429
000370 f8 52 05 3d 85 a9 33 be 2e 01 00 3c ec 84 83 3d
       0.03254983 -0.17545135 0.007812781 0.06421837
000380 a2 da bf bd 6f fa 23 3e 14 2d ab 3d 58 57 2e 3d
       -0.09367873 0.16013502 0.08358207 0.042563766
000390 1c 62 10 be 07 66 32 3d 2f f6 12 be 2b d9 0c 3c
       -0.14099926 0.043554332 -0.14351724 0.008596699
0003a0 c9 7e 5d 3d 08 05 83 3d 76 9d ae bd 7a de 69 bb
       0.05407599 0.06397444 -0.08526127 -0.0035685585
0003b0 5d e7 86 3d 0e 79 32 ba ba d6 c0 3d de 36 54 3d
       0.06587098 -0.00068081997 0.09415956 0.051810138
0003c0 6a ca 25 be 5a 70 b4 3c 2a b5 25 be 01 de a8 bd
       -0.16190496 0.02202623 -0.1618239 -0.08245469
0003d0 e2 49 71 3d bb d8 14 3e a3 a0 0a 3e a5 ec 1e 3d
       0.05890835 0.14535801 0.1353784 0.0387999
0003e0 c2 0c 5e bd 1b 59 20 be c5 db 6a 3d 0f 7f 21 be
       -0.054211386 -0.15658991 0.057338495 -0.15771125
0003f0 01 2a 7a bd 05 59 10 be 49 93 62 3d 1f 2c 82 bd
       -0.061075214 -0.14096458 0.055316243 -0.06356072

bias f4 [108]
000000 e7 52 e1 3c 66 63 98 3c 62 a7 9d 3d f6 25 a1 3d
       0.027505351 0.018602084 0.07697941 0.078685686
000010 14 5d 0d 3d a0 c0 68 3d 26 e3 2f 3c 4d b6 a5 3c
       0.034512594 0.056824327 0.010735309 0.02022853
000020 b4 74 d0 3c c4 be ce 3c 7f a7 1b 3d e3 1f 6f 3c
       0.025446273 0.025237449 0.038001534 0.014595005
000030 a8 f1 6d 3d 61 29 ac bc 84 21 3e 3d 28 b1 ab 3d
       0.05809179 -0.021015825 0.04641868 0.08383399
000040 bf d3 c2 3d 5a 5f c0 bc 11 93 f4 3d 0e ee e0 3b
       0.095130436 -0.023482967 0.11942113 0.006864316
000050 34 7c 95 3d bc 91 92 3c 1f c4 7a 3d 7e 5e 85 3d
       0.072990805 0.017891757 0.061222192 0.065121636
000060 80 40 ae 3c dd 15 79 3d cb 27 c6 3d 01 50 66 3d
       0.02127099 0.060811866 0.09675559 0.05622864
000070 cc 9d 54 3c 53 58 09 3d 04 e4 ff 3c 1f 47 12 3d
       0.012977075 0.0335315 0.031236656 0.035712358
000080 20 b2 c4 bb b9 b9 e6 bc 8a 84 09 bc 8a a9 37 bd
       -0.0060026795 -0.028164731 -0.008393416 -0.04483942
000090 03 2b b9 bc cf cb 27 bb 16 93 4c bc 4b 68 24 bc
       -0.022603517 -0.0025603657 -0.01248624 -0.010034631
0000a0 0a 9c ff bb 25 66 48 3d 94 69 6e 3c 69 a1 8d bd
       -0.0078005837 0.048925538 0.014551539 -0.06915552
0000b0 3c 0d 91 3b a6 f7 c3 bc 40 37 5a bd 92 48 e7 3b
       0.0044266265 -0.023921799 -0.053275347 0.0070582116
0000c0 32 c2 a9 3b 90 39 f0 bc b0 a8 41 bc 74 ba c2 bd
       0.0051806206 -0.029324323 -0.011820003 -0.09508219
0000d0 3f f3 d9 bc 92 53 7d bc 92 d0 7e 3c 03 3c f2 bc
       -0.026605247 -0.015461819 0.015552657 -0.029569631
0000e0 c8 8d 4f 3e f6 2e 54 be 7a c0 34 bd 6b 68 b4 3c
       0.20268929 -0.20721039 -0.044128872 0.022022447
0000f0 2f 2a ec 3d f7 dc 45 be 6e f7 17 bc b8 2e 0d 3d
       0.115314834 -0.19322573 -0.0092753 0.034468383
000100 98 a1 d8 3c 23 e8 99 bc 5a ed 78 bd 68 86 6c 3c
       0.026444241 -0.01878745 -0.06077323 0.014436342
000110 1c c4 98 bd 60 86 86 3a 2e 70 4e bc d0 1f 3d 3c
       -0.0745928 0.0010263436 -0.012599988 0.011543229
000120 e8 9f 40 3d 05 33 5e bd ec 0a cd 3b 8f 9f 11 bd
       0.0470275 -0.054247875 0.0062574055 -0.035552558
000130 ce 31 0e 3d 90 82 e6 b9 4a 60 4c 3b 3a a0 32 3c
       0.034715466 -0.00043966295 0.0031185322 0.010902459
000140 92 c6 09 bc f8 31 02 bb 14 10 04 3d b0 b5 75 3d
       -0.008409159 -0.001986621 0.032241896 0.059987724
000150 ec 41 f8 3a 64 f3 a7 bc ba ca 47 3b 8e 85 b4 bc
       0.0018940545 -0.0205018 0.0030485825 -0.02203634
000160 1e a6 11 bd e8 bd 8b 3c 4b 9d 5f 3d 54 9b a4 3c
       -0.035558812 0.017058328 0.054593366 0.020093597
000170 ee 92 d9 3b 25 f6 d9 3c f2 5a 88 bc 7a 1c 13 bc
       0.00663983 0.026606629 -0.016644929 -0.008978957
000180 59 38 05 3c 02 69 ae bb 5c b9 9e bc c0 b2 af bc
       0.00813111 -0.0053225765 -0.019375496 -0.02144754
000190 d8 5f e8 bb 25 10 2b bd a2 a6 3c 3d 1e db 13 bc
       -0.0070915036 -0.041763443 0.04605735 -0.00902441
0001a0 58 6d de bc ce 82 ec bc 2a 51 a4 bc 2e 54 1a bc
       -0.027151749 -0.028870966 -0.020058233 -0.009419484
